app/src/main/assets/mobile_facenet_model.tflite (tflite, 863624 bytes, 44 tensors)

model_2/sec10_bn/FusedBatchNormV3 f4 [128]
0.08084018 0.036537956 0.088047884 0.024610376 0.03735947 -0.013849611 -0.0111305155 0.06872428
0.018914089 -0.044374526 -0.06684813 -0.029316109 -0.054020375 0.016612576 0.032421622 -0.0073249172
-0.025686124 -0.10945309 0.036928188 0.014485649 0.045321584 -0.07783038 -0.017020578 0.0041357935
0.03782496 -0.02015161 0.10735151 -0.018886624 0.09053013 0.0027144584 -0.12027954 0.019003011
-0.009386232 0.027136762 -0.07447238 0.026638038 0.086928844 0.021147482 0.0071607376 -0.023482487
0.00532295 -0.08219 0.055188823 -0.08057275 -0.04911447 0.008209608 0.06392201 0.023299538
-0.056972813 0.058898292 0.05882902 0.081332065 -0.113995485 -0.083426885 -0.054975994 0.10243055
-0.028907957 -0.013089706 -0.015256591 -0.05376902 -0.03499478 -0.04815338 -0.059783176 0.0075908466
-0.1307931 -0.009205245 -0.03197013 -0.109843016 -0.022948442 0.020172058 0.024012864 -0.03683333
-0.07387779 -0.060281828 -0.03702103 0.056596886 0.041648876 -0.027197748 0.08375466 -0.05895451
-0.0011725416 0.010903657 -0.016893547 -0.006459098 -0.023360312 0.04222993 -0.08516272 0.0069630323
0.07856625 -0.034030527 0.05734973 -0.00035287795 0.008059007 -0.04881063 0.095740765 -0.05383668
0.033014584 -0.20810193 -0.017144915 -0.023676502 -0.018081894 0.033325545 0.028948555 -0.032998286
-0.041337613 0.035997868 -0.06750874 -0.07126088 0.011285097 0.011063925 -0.015604538 -0.04209135
-0.061940555 -0.016425805 0.008531005 0.070918165 -0.01274183 -0.09428265 0.029799163 -0.012718541
0.078471184 0.079487465 0.10035706 0.041656833 0.010802667 0.03085006 -0.015100976 -0.024558142
00000000: 898f a53d d3a8 153d 7352 b43d b39b c93c
00000010: 3e06 193d 7be9 62bc c45c 36bc 51bf 8c3d
00000020: b8f1 9a3c 10c2 35bd ace7 88bd 5628 f0bc
00000030: 7844 5dbd 1917 883c 89cc 043d dc05 f0bb
00000040: b56b d2bc f128 e0bd 0342 173d 3755 6d3c
00000050: 20a3 393d 8965 9fbd bd6e 8bbc 8d85 873b
00000060: 58ee 1a3d fd14 a5bc 1cdb db3d 1fb8 9abc
00000070: dc67 b93d 0ee5 313b 1f55 f6bd 34ac 9b3c
00000080: b6c8 19bc ea4d de3c fa84 98bd 0438 da3c
00000090: c007 b23d 7c3d ad3c 9fa4 ea3b 585e c0bc
000000a0: 246c ae3b 3b53 a8bd ad0d 623d 5303 a5bd
000000b0: 412c 49bd 9781 063c 8be9 823d acde be3c
000000c0: 535c 69bd 563f 713d b3f6 703d 6d91 a63d
000000d0: 7776 e9bd b7db aabd 822e 61bd 1cc7 d13d
000000e0: 61d0 ecbc 3576 56bc c8f6 79bc e73c 5cbd
000000f0: b056 0fbd 7b3c 45bd 34df 74bd a3bc f83b
00000100: a0ee 05be 99d1 16bc 1cf3 02bd 60f5 e0bd
00000110: 5ffe bbbc df3f a53c a0b6 c43c 8cde 16bd
00000120: 3d4d 97bd 14ea 76bd 5da3 17bd 23d2 673d
00000130: 0398 2a3d d0cd debc 9087 ab3d 497a 71bd
00000140: f8af 99ba 41a5 323c 5664 8abc d7a6 d3bb
00000150: 205e bfbc 4bf9 2c3d cb69 aebd 262a e43b
00000160: 58e7 a03d 9863 0bbd 8de7 6a3d 7a02 b9b9
00000170: ed09 043c a8ed 47bd bc13 c43d da83 5cbd
00000180: 4d3a 073d ac18 55be 7e73 8cbc 39f5 c1bc
00000190: 7b20 94bc 5e80 083d 8525 ed3c 3629 07bd
000001a0: a151 29bd 8072 133d 0642 8abd 39f1 91bd
000001b0: 21e5 383c 7745 353c 2daa 7fbc fb67 2cbd
000001c0: 61b5 7dbd 698f 86bc a1c5 0b3c 8b3d 913d
000001d0: 1cc3 50bc 4317 c1bd 601d f43c 6d61 50bc
000001e0: 80b5 a03d 53ca a23d 0188 cd3d 5ba0 2a3d
000001f0: abfd 303c 44b9 fc3c 166a 77bc 282e c9bc

model_2/sec9_bn2/FusedBatchNormV3 f4 [512]
6.888058e-06 -7.5604636e-05 -3.1680363e-05 -1.6434002e-05 1.4387594e-05 -1.0811908e-05 4.1580905e-05 1.3402224e-05
-2.2728127e-06 3.0364894e-05 5.0710973e-05 -6.8628965e-06 3.5842306e-05 6.2502922e-06 -7.818767e-05 -7.5659445e-05
4.0520496e-05 -1.4580792e-06 -5.3132295e-05 1.4293425e-05 -5.648974e-05 -6.8472225e-05 -7.5442564e-05 -2.928545e-05
-1.819634e-05 -2.2187283e-05 -3.103487e-05 1.3051505e-05 7.202691e-05 2.6420328e-05 1.8554558e-05 -3.2570457e-05
1.5427651e-05 1.9756499e-05 5.8261903e-05 9.05597e-06 1.8813989e-06 3.665586e-05 -7.768147e-06 7.8265504e-05
1.0095131e-05 -3.6562145e-05 -6.423883e-06 3.1908257e-05 6.9463524e-05 1.7136445e-06 -4.9145296e-05 1.1806476e-05
2.9265784e-05 -1.1742775e-05 -5.4162633e-06 -6.867879e-05 -2.8579638e-05 -2.6394395e-05 2.498423e-05 5.653566e-05
3.0598558e-06 3.2292082e-06 5.465019e-06 8.8657e-06 -3.560014e-05 1.4557722e-05 6.755097e-05 -3.9003215e-05
-4.7818176e-05 2.5844256e-05 -5.3966374e-05 1.4832585e-06 1.0736252e-05 -1.0171927e-05 -2.803282e-05 4.4279444e-05
1.3140534e-05 8.899811e-06 5.5154967e-05 -4.5047866e-05 3.5664576e-05 -1.5341091e-05 -1.389594e-05 -3.435903e-05
6.550139e-05 5.0626804e-05 -3.9912247e-05 1.3313183e-07 1.3858846e-05 -1.08671275e-05 -1.8243196e-05 6.018892e-05
-2.073853e-05 -2.4391762e-05 -2.5697078e-05 -2.4719893e-05 9.102339e-07 -5.7471323e-05 -2.9290022e-06 3.941665e-05
6.1653715e-05 4.5250326e-06 5.165566e-07 -6.131934e-05 2.5622994e-05 -9.196792e-06 -6.9427e-05 7.9501944e-05
4.444037e-05 5.571782e-06 -4.401266e-05 -3.7381596e-05 1.8517712e-05 2.5673275e-05 -2.9628674e-05 -3.1819807e-05
2.2821976e-05 -1.7152288e-06 -4.5539455e-05 -6.9823946e-06 6.235836e-05 -1.8010378e-05 -1.1149915e-05 -2.715374e-05
-3.253718e-05 2.156701e-05 0.00010064489 -1.9421184e-05 -7.039773e-05 -1.2394394e-05 4.5761212e-06 5.5504308e-05
3.1085518e-05 -7.1322665e-06 -2.8070517e-05 -3.221698e-05 1.7473218e-05 -4.1799918e-05 -2.676342e-05 -1.4205069e-05
5.3328942e-05 1.9981902e-05 3.0187752e-05 -6.333078e-05 1.8044873e-05 -7.8888836e-05 -9.884315e-06 -1.3296857e-05
-2.893115e-05 -2.3302182e-05 1.7108945e-05 -3.7469463e-06 -1.0934886e-05 -1.1670047e-05 -1.6283677e-05 -1.5464657e-05
-3.2449912e-05 6.307108e-05 5.5607605e-05 -2.2738147e-06 -1.5534115e-05 3.245452e-05 3.47804e-05 -0.000114275885
3.2778684e-05 -2.1299045e-05 -3.384118e-05 -1.1004714e-05 -1.640151e-05 9.549311e-05 -5.202506e-06 -2.5885338e-05
1.7840328e-05 -4.806217e-05 6.858258e-05 -4.8682028e-05 -1.6230828e-05 4.4162152e-05 1.4606525e-05 1.9219948e-05
2.1625845e-05 -5.2251544e-06 -2.5735893e-05 1.3938196e-05 -1.606634e-05 -4.597374e-05 -8.228999e-05 -5.7804074e-05
-1.7702618e-05 4.820198e-05 -2.4883724e-05 1.9101033e-05 -8.2324106e-05 -3.2656226e-06 6.62981e-05 -1.7973103e-05
1.6621245e-05 1.1652728e-05 -6.716287e-05 -9.316166e-06 -8.125124e-06 -4.3627027e-05 1.1762377e-05 6.7771754e-05
-2.1754954e-06 -1.4389382e-05 2.1594293e-05 5.8136e-05 -4.4706153e-06 -3.8734506e-06 1.616084e-05 4.105101e-05
-4.251457e-05 -3.670321e-05 2.5897536e-05 3.5019904e-05 4.825899e-05 2.2194328e-05 7.1703944e-06 1.4911895e-05
-1.031206e-05 -5.2973032e-06 4.1830408e-05 -4.047486e-06 9.531802e-06 9.211546e-06 4.402685e-05 1.4970288e-05
1.3863417e-05 -1.4482245e-05 -6.7379606e-06 3.1406576e-05 -4.718122e-06 4.5026765e-05 -3.3875178e-05 -2.709192e-06
-2.8347762e-05 -2.90319e-05 -3.0127805e-05 1.2351234e-05 8.76696e-06 3.7220412e-05 7.4260497e-06 -6.4121836e-05
-1.3459319e-05 -4.1460426e-05 -5.7422585e-06 4.7118123e-05 2.0040747e-05 6.888086e-05 -2.5740563e-05 1.8467674e-05
4.316557e-05 1.2110104e-06 2.6756697e-05 1.7059538e-06 8.4880405e-05 -5.8278252e-05 -4.8685837e-05 5.4186927e-05
00000000: f81f e736 ee8d 9eb8 88e0 04b8 c0db 89b7
00000010: 3f62 7137 cb64 35b7 2867 2e38 1dda 6037
00000020: a086 18b6 1db8 fe37 7eb2 5438 d547 e6b6
00000030: 6255 1638 9ab9 d136 b0f8 a3b8 5bab 9eb8
00000040: 8df4 2938 38b3 c3b5 5eda 5eb8 cbcd 6f37
00000050: 65ef 6cb8 bf98 8fb8 eb36 9eb8 06aa f5b7
00000060: 58a4 98b7 d41e bab7 702b 02b8 caf7 5a37
00000070: 270d 9738 39a1 dd37 9ca5 9b37 439c 08b8
00000080: a16a 8137 c2ba a537 3e5e 7438 18ef 1737
00000090: 6084 fc35 eebe 1938 f053 02b7 7922 a438
000000a0: 425e 2937 4e5a 19b8 bc8c d7b6 3bd5 0538
000000b0: f2ac 9138 6000 e635 5c21 4eb8 6e14 4637
000000c0: cb7f f537 d602 45b7 59bd b5b6 a507 90b8
000000d0: 4ebe efb7 8869 ddb7 3a95 d137 b420 6d38
000000e0: ec57 4d36 60b5 5836 2860 b736 e4bd 1437
000000f0: 5c51 15b8 f13c 7437 27aa 8d38 6297 23b8
00000100: 6090 48b8 1ecc d837 f459 62b8 6014 c735
00000110: da1f 3437 18a8 2ab7 0628 ebb7 b1b8 3938
00000120: 2a76 5c37 6650 1537 3256 6738 c7f1 3cb8
00000130: 8c96 1538 beb0 80b7 9c22 69b7 ba1c 10b8
00000140: ca5d 8938 1e58 5438 7367 27b8 00f3 0e34
00000150: 4a83 6837 f551 36b7 f708 99b7 5c73 7c38
00000160: a7f7 adb7 e99c ccb7 0e90 d7b7 915d cfb7
00000170: cc56 7435 5d0d 71b8 e08f 44b6 4e53 2538
00000180: 164c 8138 bcd5 9736 80a9 0a35 9298 80b8
00000190: f6f0 d637 ec4b 1ab7 5699 91b8 48ba a638
000001a0: 7c65 3a38 3ef5 ba36 3c9a 38b8 2fca 1cb8
000001b0: 7c56 9b37 f05c d737 188b f8b7 4276 05b8
000001c0: d271 bf37 d036 e6b5 9e01 3fb8 504a eab6
000001d0: 64c6 8238 fe14 97b7 8510 3bb7 36c8 e3b7
000001e0: 8878 08b8 cdea b437 5011 d338 adea a2b7
000001f0: 7ea2 93b8 84f1 4fb7 958c 9936 4ccd 6838
00000200: d261 0238 b451 efb6 fa78 ebb7 b820 07b8
00000210: 7393 9237 5252 2fb8 0282 e0b7 4f52 6eb7
00000220: 84ad 5f38 cf9e a737 b43b fd37 74d0 84b8
00000230: 125f 9737 1f71 a5b8 cfd4 25b7 9115 5fb7
00000240: 2cb1 f2b7 0e79 c3b7 2e85 8f37 0c74 7bb6
00000250: fa74 37b7 78ca 43b7 ee98 88b7 19ba 81b7
00000260: d41a 08b8 0745 8438 363c 6938 d797 18b6
00000270: 424f 82b7 c71f 0838 2ce1 1138 66a7 efb8
00000280: d87b 0938 5aab b2b7 b1f0 0db8 e3a0 38b7
00000290: f995 89b7 7943 c838 3091 aeb6 5724 d9b7
000002a0: d0a7 9537 5d96 49b8 fed3 8f38 ee2f 4cb8
000002b0: 7027 88b7 c03a 3938 8c0e 7537 863a a137
000002c0: 2669 b537 bc53 afb6 69e3 d7b7 19d8 6937
000002d0: 34c6 86b7 edd3 40b8 1a93 acb8 a772 72b8
000002e0: 1580 94b7 7b2c 4a38 64bd d0b7 283b a037
000002f0: 6ba5 acb8 f826 5bb6 8509 8b38 f2c4 96b7
00000300: da6d 8b37 1680 4337 cbd9 8cb8 a14c 1cb7
00000310: 2451 08b7 2afc 36b8 0657 4537 af20 8e38
00000320: bafe 11b6 ed69 71b7 6425 b537 0ed7 7338
00000330: 4b02 96b6 b0f8 81b6 2491 8737 302e 2c38
00000340: ac51 32b8 c6f1 19b8 893e d937 56e2 1238
00000350: b269 4a38 f52d ba37 3899 f036 1a2e 7a37
00000360: f601 2db7 7dbf b1b6 0f73 2f38 a4cf 87b6
00000370: c7ea 1f37 4a8b 1a37 78a9 3838 e628 7b37
00000380: ec96 6837 c5f8 72b7 a416 e2b6 8eba 0338
00000390: 5c50 9eb6 1fdb 3c38 3215 0eb8 90cf 35b6
000003a0: 5bcc edb7 8889 f3b7 f8ba fcb7 2538 4f37
000003b0: ce15 1337 1d1d 1c38 482d f936 2679 86b8
000003c0: 56cf 61b7 cbe5 2db8 a0ad c0b6 b3a0 4538
000003d0: 2d1d a837 2174 9038 70ed d7b7 07eb 9a37
000003e0: ae0c 3538 008a a235 9273 e037 20f8 e435
000003f0: d201 b238 cc6f 74b8 0534 4cb8 c546 6338

model_2/block_4_project_BN/FusedBatchNormV3 f4 [128]
0.083446905 -1.0630977 -0.107579164 -0.7036304 -0.84945136 -0.1652022 1.0302371 0.7239947
0.17393237 0.55893064 0.57718325 -0.20080431 0.4619428 -0.22307165 -0.54306144 -0.029033488
-0.22857943 -0.5458763 -0.37662366 0.1477971 0.34467807 0.2844623 -0.5692074 -0.8714604
-0.11879199 0.59494466 -0.32815334 -1.1990467 0.27651426 -0.50685215 -0.54226005 0.08390876
0.23315944 0.3452736 -0.09807953 1.0567869 -0.014516507 -1.0459448 -0.7703829 -0.031802364
-0.19039659 -0.072807096 0.3145181 0.2387631 1.208794 -1.1220511 0.0037746113 0.043826982
0.0034228691 -1.1691805 0.039858215 -1.884283 -0.41998923 -0.21254793 1.3466502 0.24366874
0.23322897 -0.34351718 0.75650835 0.20819299 -1.4876467 -0.21010686 0.30620039 0.112462595
-0.04143112 -0.15604582 0.26945898 0.26692975 -0.16562109 0.16264723 0.5486105 -0.38279262
0.15074027 -0.67257375 0.8054068 -0.4049575 0.7223531 0.33433723 -0.75784093 -1.1311376
-0.5426076 -1.9348601 -1.3122797 0.060832668 -1.3635399 -0.026385132 0.74107254 -0.51216877
0.052616563 1.0685978 0.25172216 0.12918776 -0.119661935 -0.026177853 -0.0002367924 -0.7703265
-1.375862 0.93661714 0.44936326 0.77214646 -0.08209321 0.16246815 0.53549665 -1.0259482
-0.019022595 -0.22504555 -0.6256993 -0.672984 -0.088738285 -0.67888814 -1.1742353 0.061146636
-0.09488311 -0.34306082 0.006566416 0.12881395 1.298344 0.5780489 0.4060951 -0.38239688
-0.38518566 0.46803764 -1.4312629 -0.007849116 0.3724814 0.15961589 -0.026545357 0.56805074
00000000: 36e6 aa3d 9613 88bf 7752 dcbd 1f21 34bf
00000010: a575 59bf c42a 29be cfde 833f b757 393f
00000020: 541b 323e 1416 0f3f 48c2 133f a59f 4dbe
00000030: c483 ec3e e56c 64be 1306 0bbf a3d7 edbc
00000040: ba10 6abe 8dbe 0bbf d1d4 c0be 1f58 173e
00000050: a579 b03e 0ba5 913e 93b7 11bf 0718 5fbf
00000060: 3749 f3bd 4b4e 183f b703 a8be 5d7a 99bf
00000070: 4793 8d3e 10c1 01bf 8ed1 0abf 5bd8 ab3d
00000080: 59c1 6e3e b4c7 b03e ecdd c8bd cb44 873f
00000090: a5d6 6dbc 85e1 85bf d037 45bf 3243 02bd
000000a0: 53f7 42be e31b 95bd 8408 a13e 507e 743e
000000b0: c3b9 9a3f 5f9f 8fbf 785f 773b ec83 333d
000000c0: 3752 603b b5a7 95bf 5e42 233d 2f30 f1bf
000000d0: d408 d7be 2aa6 59be 095f ac3f 4c84 793e
000000e0: 93d3 6e3e 7ce1 afbe 88aa 413f 8b30 553e
000000f0: 356b bebf 4126 57be 4cc6 9c3e ca52 e63d
00000100: aeb3 29bd 7aca 1fbe 87f6 893e 04ab 883e
00000110: 9398 29be ff8c 263e bd71 0c3f 65fd c3be
00000120: a85b 1a3e cb2d 2cbf 242f 4e3f 9756 cfbe
00000130: 22ec 383f 402e ab3e dd01 42bf 1ec9 90bf
00000140: 55e8 0abf 7fa9 f7bf c8f8 a7bf ad2b 793d
00000150: 7a88 aebf a225 d8bc eeb6 3d3f 7e1d 03bf
00000160: 7784 573d d0c7 883f bae1 803e cc49 043e
00000170: 5111 f5bd f072 d6bc 7a4b 78b9 1e34 45bf
00000180: 3f1c b0bf 24c6 6f3f f112 e63e 64ab 453f
00000190: 7c20 a8bd 0d5e 263e 4f16 093f 4552 83bf
000001a0: 46d5 9bbc 5772 66be d42d 20bf ae48 2cbf
000001b0: 6bbc b5bd 9dcb 2dbf 584d 96bf e574 7a3d
000001c0: 1352 c2bd aba5 afbe 172b d73b cee7 033e
000001d0: 2330 a63f 03fb 133f b2eb cf3e 86c9 c3be
000001e0: 0e37 c5be a1a2 ef3e 9f33 b7bf 9499 00bc
000001f0: e2b5 be3e 5972 233e a675 d9bc c66b 113f

model_2/block_4_expand_BN/FusedBatchNormV3 f4 [256]
0.0145710055 -0.08903753 -0.031546805 0.05059022 -0.10461105 -0.078815736 -0.030522937 0.11654336
-0.07732808 -0.06419171 -0.08203755 -0.16725105 -0.10968295 -0.05001633 0.0014132449 0.10452345
-0.044845484 0.023646073 0.039726418 -0.11464132 0.12977487 0.037064705 0.14552712 -0.77541095
-0.019813579 0.1256013 0.15148531 0.084432416 -0.13092132 0.03681641 0.028708614 0.07095753
-0.27442953 -0.017574424 0.09868105 -0.102077 -0.03555592 -0.0542381 0.0537664 0.17022799
0.07669854 -0.041245278 -0.06753238 -0.057706583 -0.008217157 0.078174114 0.008906049 -0.032168046
0.01474155 -0.0996009 0.01183067 -0.0027554256 0.035777032 0.027368942 0.092080325 0.006460032
2.558183e-05 -0.039215744 -0.08029982 -0.063164175 0.035764467 0.24900217 0.02053363 -0.16249922
-0.07204683 0.19409212 -0.0027380488 -0.0632506 -0.09305987 -0.006581246 -0.013967636 0.064273104
-0.077558264 -0.03973443 -0.0209645 0.013641147 0.13089181 0.044877797 -0.060478713 0.056708924
0.024664922 -0.0148444595 -0.036850955 -0.02363949 -0.022450976 -0.03206773 -0.059157126 0.033872887
0.09264543 0.030373963 -0.0218901 -0.028162982 0.035535034 0.05084542 0.043559764 -0.040938534
-0.08949575 0.05813841 -0.02124325 -0.01877142 0.058711108 -0.041337315 0.3282302 -0.15819931
-0.07620079 0.009717561 -0.073909596 0.03624683 -0.055759057 0.005065452 0.07345489 -0.054537516
-0.051485784 0.024516305 -0.08377954 -0.008095206 0.06173822 0.0011219014 0.041797865 -0.022891946
0.04140997 -0.039942943 -0.14712663 0.037129514 0.03430555 0.08585908 -0.049958825 0.05389707
0.011037415 -0.0069083194 0.05173411 -0.004910126 0.028875008 -0.062332492 -0.025668088 0.15490083
-0.087334126 0.24667476 -0.051036943 0.028388109 -0.0094206445 0.035233386 0.049409803 -0.026467206
0.08526271 -0.031551998 -0.012345528 -0.24914227 0.0008688229 0.013842804 0.02450525 0.21887292
-0.0030735012 -0.023919439 0.024085648 0.35163343 0.048788562 0.05011533 -0.023834264 0.04164652
0.013630436 -0.02672128 0.039072257 -0.05823799 -0.02761317 0.048392486 0.014242425 -0.118541956
0.13741523 -0.013853528 0.010304436 -0.019925896 0.053656876 -0.029777372 -0.021188173 0.11321376
0.059571784 0.0954145 -0.03644647 0.01050448 0.045091286 -0.0021594237 0.046668537 -0.0006646344
-0.049756218 0.033271972 -0.006217064 0.08629672 0.0517494 -0.09758349 0.15649688 -0.006950227
0.009724969 0.15663143 -0.10888916 0.09470152 -0.096499965 -0.06652664 0.0061981133 -0.017678035
-0.039469853 0.02219493 0.012845725 0.16819544 0.09567472 -0.103921 0.029960463 0.07273999
-0.0073609473 -0.021176001 0.043542895 0.05401244 0.019303976 0.07427222 -0.02169879 0.12731867
-0.1217971 0.09729197 0.05053881 0.0062762056 -0.15119413 0.017876059 0.066330925 -0.10062539
0.007083554 0.010564001 0.12430908 -0.000115782386 -0.012364879 0.07969773 0.032133065 -0.078035526
-0.09441216 0.077417985 0.019360732 0.012405925 -0.09489697 0.13260537 -0.20894127 0.027655303
-0.062110562 0.19296648 0.05472693 0.009009303 0.02936726 -0.14593923 -0.04629789 0.12000992
0.038593728 -0.050198827 -0.1238017 -0.0038998858 0.023535714 0.11943501 0.05616701 -0.039506663
00000000: 3abb 6e3c 4f59 b6bd 3937 01bd b137 4f3d
00000010: 513e d6bd 256a a1bd 3d0b fabc 49ae ee3d
00000020: 2f5e 9ebd f176 83bd 4e03 a8bd dc43 2bbe
00000030: 74a1 e0bd ecdd 4cbd a13c b93a 6410 d63d
00000040: e6af 37bd 69b5 c13c 2bb8 223d 12c9 eabd
00000050: b4e3 043e 29d1 173d 1005 153e 5581 46bf
00000060: 1650 a2bc a19d 003e f71e 1b3e e7ea ac3d
00000070: 3d10 06be cecc 163d 542e eb3c 2e52 913d
00000080: 0782 8cbe 3df8 8fbc 4a19 ca3d bf0d d1bd
00000090: 16a3 11bd c528 5ebd 283a 5c3d 3f50 2e3e
000000a0: 2014 9d3d cff0 28bd 6b4e 8abd bd5d 6cbd
000000b0: 41a1 06bc c019 a03d adea 113c a4c2 03bd
000000c0: 8b86 713c 8ffb cbbd 6dd5 413c 5f94 34bb
000000d0: f08a 123d d534 e03c 9c94 bc3d adae d33b
000000e0: 9098 d637 b0a0 20bd 3b74 a4bd 385c 81bd
000000f0: c37d 123d 6dfa 7e3e 2536 a83c 3266 26be
00000100: 4a8d 93bd 16c0 463e d670 33bb 8889 81bd
00000110: 2c96 bebd 7ea7 d7bb 83d8 64bc 9ea1 833d
00000120: ded6 9ebd 92c0 22bd bebd abbc 1e7f 5f3c
00000130: 8108 063e c8d1 373d 87b8 77bd 9e47 683d
00000140: 170e ca3c 2d36 73bc 07f1 16bd 9ba7 c1bc
00000150: 1ceb b7bc 7459 03bd be4e 72bd 4cbe 0a3d
00000160: e3bc bd3d d1d2 f83c de52 b3bc 0eb6 e6bc
00000170: 2f8d 113d 4a43 503d b96b 323d 2aaf 27bd
00000180: 8c49 b7bd 8b22 6e3d 5306 aebc 85c6 99bc
00000190: 0f7b 703d 5151 29bd ca0d a83e 00ff 21be
000001a0: 290f 9cbd 6836 1f3c ea5d 97bd 8e77 143d
000001b0: 9c63 64bd 17fc a53b 846f 963d bb62 5fbd
000001c0: c2e2 52bd 6bd6 c83c 9c94 abbd c1a1 04bc
000001d0: 37e1 7c3d c40c 933a 3d34 2b3d e487 bbbc
000001e0: 809d 293d 369b 23bd 5da8 16be 1e15 183d
000001f0: fa83 0c3d e3d6 af3d a0a1 4cbd 2dc3 5c3d
00000200: 46d6 343c 2f5f e2bb 25e7 533d 1fe5 a0bb
00000210: 488b ec3c 5b50 7fbd e245 d2bc 539e 1e3e
00000220: 3cdc b2bd 4f98 7c3e 1d0c 51bd 2e8e e83c
00000230: 0c59 1abc e250 103d ef61 4a3d c1d1 d8bc
00000240: 379e ae3d ab3c 01bd e644 4abc 271f 7fbe
00000250: b8c1 633a eecc 623c 3cbf c83c 3920 603e
00000260: cb6c 49bb b3f2 c3bc 444f c53c 4c09 b43e
00000270: 84d6 473d bb45 4d3d 1340 c3bc 8b95 2a3d
00000280: 3152 5f3c 96e6 dabc 3b0a 203d f58a 6ebd
00000290: 0435 e2bc 3337 463d 0f59 693c 20c6 f2bd
000002a0: 94b6 0c3e e8f9 62bc f0d3 283c a23b a3bc
000002b0: 50c7 5b3d adef f3bc d292 adbc 9edc e73d
000002c0: 8b01 743d ad68 c33d e548 15bd fc1a 2c3c
000002d0: a4b1 383d 1e85 0dbb 8227 3f3d dc3a 2eba
000002e0: 2dcd 4bbd 3148 083d 83b8 cbbb 56bc b03d
000002f0: 2ef7 533d dad9 c7bd b840 203e bbbe e3bb
00000300: 7a55 1f3c fd63 203e 4801 dfbd dff2 c13d
00000310: c6a1 c5bd 1e3f 88bd 8b19 cb3b 87d1 90bc
00000320: 24ab 21bd 24d2 b53c e076 523c 6d3b 2c3e
00000330: 1cf1 c33d 89d4 d4bd a56f f53c b4f8 943d
00000340: 1a34 f1bb 4b79 adbc 095a 323d 263c 5d3d
00000350: 5f23 9e3c 091c 983d a9c1 b1bc d35f 023e
00000360: c270 f9bd 0341 c73d c901 4f3d a1a8 cd3b
00000370: a2d2 1abe d070 923c 82d8 873d af14 cebd
00000380: 281d e83b a214 2d3c c295 fe3d 32d0 f2b8
00000390: 1096 4abc 9038 a33d f69d 033d 17d1 9fbd
000003a0: 2a5b c1bd 528d 9e3d 669a 9e3c 3942 4b3c
000003b0: 5859 c2bd b4c9 073e b3f4 55be 608d e23c
000003c0: a567 7ebd 0199 453e 5829 603d c19b 133c
000003d0: 9c93 f03c 1871 15be dba2 3dbd c3c7 f53d
000003e0: 7514 1e3d 499d 4dbd bf8b fdbd 3a95 7fbb
000003f0: f8cd c03c 589a f43d 610f 663d bdd1 21bd

model_2/block_3_project_BN/FusedBatchNormV3 f4 [128]
-0.41218862 -0.057315506 -0.4914332 0.18246098 -0.26383156 0.6671011 -0.82504535 -0.1122031
0.13832453 -0.6813454 0.52565503 -0.19632882 0.10340356 0.54385084 1.3016858 -1.1918377
-0.41033638 0.91586447 1.1835165 -0.33053246 -0.5271632 -0.26645547 -0.35757363 0.37246394
-0.8644398 0.0629054 -1.2823205 -0.54403245 1.2049856 0.53603566 0.42625758 -1.0462168
0.6003611 -0.21946737 -0.12895803 0.49989128 -0.10328488 -0.2597915 -0.502362 -0.43351814
-0.5458938 -0.7636874 -0.30362305 -0.51226366 -0.34415936 -1.0074412 -0.06994489 -0.33701578
0.1184906 0.33854976 0.5788782 0.42486975 -0.8065967 0.073904276 -0.6148315 0.8603498
-1.6506664 0.76872003 -0.6469266 0.5200941 -0.42787272 0.7112873 -0.8915583 0.07706918
0.116599865 0.37729657 -0.46514398 -0.29244184 0.2673327 0.19053726 0.029479314 0.266448
-0.5554181 -0.0403805 0.50524735 0.14202002 0.8367649 -0.6262845 0.8412188 0.9445698
-0.78530777 0.31881604 -0.31914654 -0.5147547 0.3011878 0.2927615 -0.4615903 0.99659324
-0.161886 -0.3964474 0.09286118 -0.90932345 0.38752827 -0.15257953 0.18559903 0.37758216
-0.27410042 0.0425294 0.6628384 0.069377854 0.044672247 -0.18622828 0.55931413 -0.6544076
0.09038136 -0.7184102 1.2464484 0.92143613 0.18949336 0.6500516 -0.020002907 0.5369009
0.52086616 0.25529146 0.22468212 0.89784503 0.3730711 0.193964 1.0580306 0.1824316
-0.67282456 -0.010731771 0.37147173 0.13202111 0.43538797 0.22335114 0.26687232 -0.014907976
00000000: 630a d3be aac3 6abd 229d fbbe 0dd7 3a3e
00000010: ee14 87be 23c7 2a3f 2c36 53bf bdca e5bd
00000020: f2a4 0d3e a76c 2ebf 5491 063f 6c0a 49be
00000030: 3fc5 d33d cf39 0b3f a49d a63f 238e 98bf
00000040: 9c17 d2be 1876 6a3f 787d 973f 8d3b a9be
00000050: 2bf4 06bf da6c 88be e413 b7be 98b3 be3e
00000060: ed4b 5dbf 8cd4 803d 1423 a4bf b645 0bbf
00000070: f83c 9a3f a239 093f 6f3e da3e 6fea 85bf
00000080: 44b1 193f 0ebc 60be 930d 04be c0f1 ff3e
00000090: 0687 d3bd 6403 85be cc9a 00bf 17f6 ddbe
000000a0: b2bf 0bbf 0481 43bf 7b74 9bbe b623 03bf
000000b0: a835 b0be d5f3 80bf 443f 8fbd 558d acbe
000000c0: 33ab f23d 6556 ad3e 5d31 143f 8788 d93e
000000d0: 1f7d 4ebf 205b 973d 9965 1dbf e23f 5c3f
000000e0: 0949 d3bf d6ca 443f fb9c 25bf e324 053f
000000f0: 2212 dbbe ed16 363f 2a3d 64bf 72d6 9d3d
00000100: e9cb ee3d 042d c13e 5a27 eebe f0ba 95be
00000110: d5df 883e 331c 433e 9a7e f13c df6b 883e
00000120: e12f 0ebf 0666 25bd e457 013f b26d 113e
00000130: 3936 563f 2e54 20bf 1e5a 573f 54cf 713f
00000140: ee09 49bf db3b a33e 2d67 a3be f7c6 03bf
00000150: 4a35 9a3e d6e4 953e 9055 ecbe bc20 7f3f
00000160: 72c5 25be 27fb cabe 012e be3d 6cc9 68bf
00000170: 1b6a c63e cf3d 1cbe ac0d 3e3e 7352 c13e
00000180: e456 8cbe 4f33 2e3d c7af 293f fa15 8e3d
00000190: 3ffa 363d a0b2 3ebe 362f 0f3f 4287 27bf
000001a0: dd19 b93d bbe9 37bf 9f8b 9f3f 3de3 6b3f
000001b0: 8c0a 423e c869 263f 23dd a3bc 5672 093f
000001c0: 7c57 053f 90b5 823e 1213 663e 2cd9 653f
000001d0: 2d03 bf3e 809e 463e 8c6d 873f 59cf 3a3e
000001e0: 3b3e 2cbf 4fd4 2fbc 8b31 be3e 8b30 073e
000001f0: 2ceb de3e 29b6 643e 7da3 883e 9540 74bc

model_2/block_3_expand_BN/FusedBatchNormV3 f4 [512]
-0.008719424 0.046955194 0.0039991476 0.015101231 -0.06322227 -0.055922497 0.02365127 -0.0016742019
0.0036938072 0.015803132 -0.034313362 -0.0071439045 0.008217922 -0.00360971 0.067169875 -0.021779723
0.001874932 0.0046343226 0.03678258 -0.0726565 -0.00861437 0.008886678 0.027859384 -0.037527535
-0.017693596 0.022550192 -0.03228322 -0.054781817 -0.020456415 -0.06967083 -0.025594039 -0.0036333092
0.021286506 0.01386504 -0.018330257 0.13503604 0.022655489 0.03832895 0.1632628 -0.00016355864
0.1748772 0.0036590458 -0.0022172579 0.0077264183 -0.07391938 0.054999724 -0.05100392 -0.020409431
-0.009006786 -0.020935608 -0.020803312 -0.02496791 -0.07258467 0.034893498 0.026972586 -0.013468526
0.055311527 0.07273932 -0.035707127 0.009174886 0.024450531 0.009141857 0.046749964 -0.0289305
-0.0069816955 -0.081013456 -0.044031378 0.007609892 -0.018228354 0.01711482 0.008409138 0.01827058
0.014586391 0.017022766 0.023740584 0.036196936 0.04766307 0.021422403 0.028468678 0.00076061155
-0.00047287066 -0.040006693 -0.003939508 -0.05156039 0.01604574 0.022828886 0.0054755593 0.029106136
-0.03970981 -0.010613983 -0.006608134 -0.006002871 0.12802368 0.0067938776 -0.029631572 -0.038115606
-0.0399085 -0.004311183 0.027093325 0.06743847 0.10170392 0.020333821 -0.012426868 0.017795073
0.06710207 0.06293043 0.12660712 -0.019637752 0.042561766 0.02599514 0.019509306 -0.009931698
-0.022632714 0.05557038 -0.094735205 -0.052219056 0.0645801 -0.0014209073 0.07643172 0.0075166505
-0.009496073 -0.10082747 0.037194025 0.022359645 -0.009954908 -0.108780526 -0.0064419094 0.014751789
0.004345069 -0.00028647584 0.020853704 0.022861503 0.008614744 0.01539997 -0.0013854381 0.013920045
-0.1624205 -0.010144949 0.12665801 -0.005635671 0.0100549795 0.0012688618 0.014744942 0.016002985
-0.0075696125 0.039817657 -0.10879089 -0.004876002 -0.0601667 0.033174466 0.009097038 0.011058388
-0.045438673 -0.05511307 -0.01274247 0.057296682 0.00915077 -0.0073478026 0.04835581 -0.010585016
0.008349234 -0.01800717 -0.058709804 0.04099422 -0.035267796 -0.03804962 0.041432455 0.08311219
0.03663546 -0.056589834 -0.096959405 0.006010119 -0.0125634475 -0.0010415236 0.029554872 -0.021715421
-0.00017438011 0.0054012705 0.031157313 0.15297364 0.037201174 0.008095372 0.0010836676 0.01019319
0.018201409 0.0124658635 -0.054567516 0.03519776 -0.01974954 0.057649266 0.013584249 -6.0570565e-05
-0.024831463 0.03265945 0.015448682 0.031690095 0.0009640361 -0.06793132 0.03318997 -0.07483201
0.007933937 -0.02862006 0.060122233 0.014455837 0.005810576 0.011362681 0.013501689 0.01783684
-0.029378014 -0.0013328132 0.04809787 0.045091245 -0.0049575362 0.017558072 0.02290352 -0.0014816717
0.002096512 0.0036149898 -0.020842826 -0.011185299 -0.018956771 -0.117009155 0.004974358 0.041927207
-0.018441353 -0.08032028 -0.011290031 -0.020114873 -0.01372129 0.023824755 -0.0075061233 -0.0246916
-0.04949349 0.014078568 0.015852628 0.0770818 0.050556023 0.018547842 -0.044556614 -0.014498027
-0.009798582 0.009625946 -0.011198476 -0.011741328 0.078765206 -0.04506226 -0.019499782 0.048626702
-0.029028546 0.0021272493 -0.0025952803 -0.015394033 -0.028514134 0.08611751 0.016870134 -0.0027283048
00000000: eadb 0ebc 1754 403d 480b 833b 276b 773c
00000010: ad7a 81bd fd0e 65bd 4fc0 c13c e570 dbba
00000020: cd13 723b 9275 813c 2b8c 0cbd 6a17 eabb
00000030: 77a4 063c e290 6cbb 5c90 893d 646b b2bc
00000040: 47c0 f53a 84db 973b 55a9 163d eecc 94bd
00000050: 4923 0dbc 6e99 113c 5d39 e43c 79b6 19bd
00000060: 29f2 90bc 2ebb b83c 693b 04bd e662 60bd
00000070: 3694 a7bc 95af 8ebd 97aa d1bc d01c 6ebb
00000080: 0a61 ae3c 312a 633c 5629 96bc e346 0a3e
00000090: 0198 b93c d1fe 1c3d 5d2e 273e f080 2bb9
000000a0: 0213 333e 9acc 6f3b 6a4f 11bb e52d fd3b
000000b0: 0b63 97bd 6447 613d 7de9 50bd ae31 a7bc
000000c0: 3391 13bc 2781 abbc b56b aabc 8189 ccbc
000000d0: 45a7 94bd 7cec 0e3d 9df5 dc3c 18ab 5cbc
000000e0: 578e 623d 5af8 943d a341 12bd 4352 163c
000000f0: 7b4c c83c bac7 153c e47c 3f3d a8ff ecbc
00000100: b5c6 e4bb 62ea a5bd 3f5a 34bd 675c f93b
00000110: a153 95bc 6134 8c3c 7bc6 093c 2fac 953c
00000120: c2fb 6e3c 5473 8b3c 9d7b c23c 3d43 143d
00000130: 5a3a 433d 097e af3c 2537 e93c c763 473a
00000140: a0eb f7b9 0fde 23bd fd16 81bb fd30 53bd
00000150: 5b72 833c a503 bb3c 526c b33b fe6f ee3c
00000160: c1a6 22bd 45e6 2dbc 0c89 d8bb bbb3 c4bb
00000170: a418 033e 2d9f de3b e9bd f2bc 1c1f 1cbd
00000180: 1877 23bd d344 8dbb d2f2 dd3c 2e1d 8a3d
00000190: 254a d03d 1d93 a63c 109a 4bbc f9c6 913c
000001a0: cf6c 893d abe1 803d 4ca5 013e 5adf a0bc
000001b0: 3f55 2e3d c3f3 d43c fbd1 9f3c 90b8 22bc
000001c0: 3e68 b9bc c49d 633d 8804 c2bd a6e3 55bd
000001d0: 9242 843d bd3d baba 3c88 9c3d 3c4e f63b
000001e0: 6b95 1bbc a27e cebd c358 183d 932b b73c
000001f0: e919 23bc 53c8 debd a716 d3bb 7db1 713c
00000200: 1561 8e3b 2332 96b9 63d5 aa3c 0c48 bb3c
00000210: db24 0d3c 2850 7c3c 9797 b5ba e710 643c
00000220: 8f51 26be 0037 26bc a3b2 013e 6fab b8bb
00000230: a4bd 243c f04f a63a c594 713c b118 833c
00000240: 830a f8bb d717 233d c2cd debd dfc6 9fbb
00000250: 5c71 76bd f3e1 073d be0b 153c 3e2e 353c
00000260: e71d 3abd 3ebe 61bd cbc5 50bc edaf 6a3d
00000270: 1ced 153c d6c5 f0bb be10 463d c66c 2dbc
00000280: 3acb 083c c683 93bc b179 70bd 8ee9 273d
00000290: f774 10bd ebd9 1bbd 14b5 293d b936 aa3d
000002a0: 100f 163d beca 67bd a792 c6bd 88f0 c43b
000002b0: ebd6 4dbc bc83 88ba 0f1d f23c 8ae4 b1bc
000002c0: ced9 36b9 24fd b03b 9f3d ff3c 1fa5 1c3e
000002d0: 4260 183d 73a2 043c da09 8e3a 5601 273c
000002e0: 1f1b 953c 9f3d 4c3c 3082 5fbd 872b 103d
000002f0: cac9 a1bc a321 6c3d 7890 5e3c 260d 7eb8
00000300: 5a6b cbbc eac5 053d 781c 7d3c 79cd 013d
00000310: 5eb7 7c3a 931f 8bbd 35f2 073d 8641 99bd
00000320: 58fd 013c 9e74 eabc bb42 763d 2dd8 6c3c
00000330: a566 be3b 8a2a 3a3c 3036 5d3c 911e 923c
00000340: 29aa f0bc cab1 aeba 4602 453d 99b1 383d
00000350: d472 a2bb f2d5 8f3c 2aa0 bb3c a734 c2ba
00000360: a265 093b 77e9 6c3b 93be aabc 8b42 37bc
00000370: 3b4b 9bbc 7fa2 efbd f0ff a23b ddbb 2b3d
00000380: 5212 97bc f57e a4bd d2f9 38bc f2c7 a4bc
00000390: 43cf 60bc 222c c33c edf5 f5bb 0a46 cabc
000003a0: b0b9 4abd cba9 663c 5fdd 813c 10dd 9d3d
000003b0: d513 4f3d a5f1 973c ff80 36bd 2289 6dbc
000003c0: 3b8a 20bc 25b6 1d3c d079 37bc b35e 40bc
000003d0: a74f a13d 3493 38bd 02be 9fbc cb2c 473d
000003e0: 46cd edbc 5269 0b3b 9415 2abb 4137 7cbc
000003f0: 7996 e9bc 615e b03d 3c33 8a3c 5ccd 32bb

model_2/block_2_project_BN/FusedBatchNormV3 f4 [128]
0.012589552 0.8282294 -0.65244484 0.97817516 0.58546424 0.46438658 -1.3053232 0.14975688
-1.1767263 0.18748377 -0.23545717 0.71995986 0.8591572 0.095778294 -0.3317837 -1.3037
0.06887662 0.23737457 0.41006124 0.41335568 -1.1968386 0.26526943 -0.25822562 0.12381691
0.62038225 0.15098761 0.4972301 0.6588533 -1.1707826 -2.211212 0.68038267 0.2514975
0.20506373 0.6524446 -1.1017758 0.279995 -0.45474404 0.18774337 0.2513895 -0.41893667
-0.50112236 -0.5099212 -0.1343859 -0.50531465 0.4435862 -0.6166368 -0.51139325 -0.40423268
0.565919 1.1756214 -0.6272752 -0.7980314 -0.77699417 -0.29716295 -0.2981706 -0.07557093
-0.9971075 -1.2089834 -1.223629 1.4984821 0.5572049 -0.6370249 -0.20076583 0.5919773
0.66491646 0.32318172 1.2366611 -0.40182987 0.447495 -0.3560575 -0.04149349 0.24446486
-0.38856304 0.087736785 0.081583925 0.41121465 -0.20414123 -0.8431033 -0.61149555 -0.080818705
0.5637818 1.287498 0.3975523 0.44427192 -0.37120852 -0.368653 -0.4075554 0.6577421
-0.01209291 -0.14137025 0.09005081 -0.20786144 0.097441636 -1.1664165 -0.4547119 0.33061367
0.72291374 -0.9583473 0.44797572 -0.41273293 -0.67413235 1.1473905 0.3239556 -0.23960653
-0.97629946 -0.5501171 0.3137451 0.9861701 -0.26265097 0.44717678 0.73863953 0.10304906
-0.42732385 -0.2007864 0.7515256 -0.23803762 1.0126317 0.15984558 1.2061149 -0.5868983
1.3588419 -0.47559792 -0.1287586 0.4280356 1.1854116 0.6012455 0.66119534 0.16718937
00000000: 6944 4e3c d806 543f a006 27bf b069 7a3f
00000010: fce0 153f 14c4 ed3e d514 a7bf de59 193e
00000020: f89e 96bf bffb 3f3e af1b 71be 4a4f 383f
00000030: baf1 5b3f 6927 c43d 8edf a9be a4df a6bf
00000040: 2f0f 8d3d 5212 733e 8cf3 d13e 5ba3 d33e
00000050: 0232 99bf 65d1 873e 2636 84be b893 fd3d
00000060: 5fd1 1e3f 7f9c 1a3e f294 fe3e 9caa 283f
00000070: 34dc 95bf 7f84 0dc0 8f2d 2e3f 48c4 803e
00000080: 3afc 513e 9c06 273f fd06 8dbf 815b 8f3e
00000090: 36d4 e8be cc3f 403e 20b6 803e de7e d6be
000000a0: 8e49 00bf 328a 02bf 759c 09be 4d5c 01bf
000000b0: bb1d e33e e9db 1dbf abea 02bf 96f7 cebe
000000c0: 11e0 103f c37a 963f 1c95 20bf c94b 4cbf
000000d0: 17e9 46bf be25 98be d1a9 98be efc4 9abd
000000e0: 7042 7fbf f8bf 9abf e09f 9cbf 43ce bf3f
000000f0: fba4 0e3f 1014 23bf 8f95 4dbe d38b 173f
00000100: f737 2a3f 1378 a53e e94a 9e3f a5bc cdbe
00000110: 111e e53e 2b4d b6be 14f5 29bd ff54 7a3e
00000120: bcf1 c6be 58af b33d 7915 a73d ba8a d23e
00000130: 660a 51be 9ed5 57bf f98a 1cbf 4784 a5bd
00000140: 0154 103f bccc a43f fa8b cb3e 9c77 e33e
00000150: 0b0f bebe 16c0 bcbe 1aab d0be c961 283f
00000160: 5721 46bc 5dc3 10be 8f6c b83d a1d9 54be
00000170: 7b8f c73d 234d 95bf 00d0 e8be 3246 a93e
00000180: e010 393f 4056 75bf 135d e53e bb51 d3be
00000190: f093 2cbf b1dd 923f 82dd a53e 6a5b 75be
000001a0: c3ee 79bf 79d4 0cbf 33a3 a03e a575 7c3f
000001b0: 307a 86be 5bf4 e43e 7b17 3d3f 630b d33d
000001c0: 31ca dabe f39a 4dbe fb63 403f 22c0 73be
000001d0: ea9d 813f 8fae 233e f961 9a3f f83e 16bf
000001e0: 88ee ad3f 9281 f3be 4bd9 03be 7b27 db3e
000001f0: 91bb 973f 3aeb 193f 1944 293f b133 2b3e

model_2/block_2_expand_BN/FusedBatchNormV3 f4 [256]
0.031083662 0.049800757 0.039459705 -0.016303254 -0.009242309 0.10037317 -0.067105934 -0.05589229
-0.090800375 -0.14524284 -0.017284025 0.0751198 -0.07648809 0.12681353 0.12847717 0.06894361
0.003310624 0.00021112255 0.029779887 -0.034140922 -0.09017312 -0.026125595 0.052302826 0.32552385
-0.07402644 0.33040306 0.10606157 -0.020848012 -0.18670249 -0.039163742 0.07224225 0.09331976
0.14716823 0.042989373 0.013644623 0.025982574 0.059878778 -0.020224923 -0.25984675 0.009379266
-0.011603484 0.018324438 0.13219485 0.018164583 -0.05001118 -0.018416807 0.033371106 0.034746673
-0.02833285 -0.005756519 0.08470213 -0.14000951 -0.1093492 0.24044035 -0.050795313 -0.076065935
-0.06715417 0.061923645 -0.04787559 0.11631693 -0.06900083 0.14328292 0.036539108 -0.056277532
0.10398621 0.06874134 0.0037514132 0.06297684 0.04843471 0.017521545 0.020475073 0.0711156
-0.05275601 0.03243615 0.06620651 -0.054395076 0.026764363 0.3489671 -0.120119415 0.050557636
0.06449641 -0.12882051 -0.016779356 0.051274054 0.07894355 0.03630889 -0.044108886 0.050608173
-0.029866533 -0.02518735 -0.0007774905 0.0040295306 -0.09237852 0.05070607 -0.049667113 0.08170379
0.04707796 -0.21949552 0.18890415 -0.12459638 -0.01279906 0.0533383 -0.08508535 0.08620142
-0.1851281 -0.014098501 -0.0085158795 0.076132074 -0.076947436 -0.06643575 0.14700894 -0.021972207
-0.026129719 0.065621614 0.044369143 -0.15322343 -0.083514795 0.10074907 0.046189595 0.10379327
-0.058824148 0.019556105 0.08384666 0.010019066 0.07124247 0.014260837 0.008895966 0.12472075
-0.014449899 -0.017319702 0.10526524 -0.06320288 -0.119504526 0.010281863 0.051665295 0.031873897
0.03894483 0.034325905 0.007970192 0.057315327 -0.012609308 0.028165957 0.05067601 0.0465706
-0.0012967909 -0.006026697 0.0468903 0.014052662 0.090324275 -0.028843258 0.14220127 0.00061526836
0.051889423 -0.063125946 0.043483783 -0.03380304 0.018705864 0.10933356 -0.14076051 -0.053592104
0.21955448 -0.035729934 0.028763665 0.07157164 0.053237423 -0.02935417 -0.06649001 0.048182074
0.037424117 -0.111398324 -0.065665685 0.07185602 -0.13560091 -0.028859526 -0.07806163 0.030198487
-0.09190054 0.16138496 -0.06724175 0.031712823 0.002854296 0.0013927466 0.14960496 -0.06361948
-0.11142882 -0.02769466 0.061318405 -0.00037322962 -0.019028457 -0.008310818 0.26474458 -0.11422115
0.06653167 -0.003409286 -0.068642944 0.03463293 0.08746411 -0.24013121 0.04417902 0.011265655
-0.016419536 0.16812183 -0.04982413 -0.07620363 -0.019222148 0.016067155 0.0530698 -0.018873224
-0.050423898 0.07024032 -0.031100161 0.059470553 0.08293781 0.09581914 0.031115681 -0.041730236
-0.0076026325 0.0445186 -0.007111476 -0.0104482295 -0.009673446 0.0942844 0.08468157 -0.28635854
0.013226916 0.1868007 0.13616338 0.022170795 -0.12682602 0.0022407006 0.04093934 0.089130454
0.025414603 0.03977979 -0.04781435 0.050649084 -0.08244141 -0.03426071 -0.1324597 0.04966554
-0.006018466 0.026881026 -0.026149794 0.08843781 -0.017727742 0.22354932 0.09439229 -0.116184056
-0.10943164 -0.039017983 -0.04562964 -0.004740556 0.08930029 -0.06198468 -0.14926529 0.10551023
00000000: 2aa3 fe3c e1fb 4b3d 80a0 213d 678e 85bc
00000010: 0e6d 17bc 7390 cd3d d66e 89bd 50ef 64bd
00000020: 8cf5 b9bd 8aba 14be 3a97 8dbc 69d8 993d
00000030: caa5 9cbd 68db 013e 858f 033e 4f32 8d3d
00000040: 0ef7 583b c760 5d39 f3f4 f33c 5ad7 0bbd
00000050: afac b8bd 5805 d6bc 7d3b 563d 10ab a63e
00000060: 2d9b 97bd 972a a93e cf36 d93d 73c9 aabc
00000070: f02e 3fbe 296a 20bd bff3 933d 6e1e bf3d
00000080: 45b3 163e a015 303d b28d 5f3c 68d9 d43c
00000090: 7343 753d bdae a5bc a20a 85be 7eab 193c
000000a0: 8a1c 3ebc 221d 963c 165e 073e e4cd 943c
000000b0: 86d8 4cbd d8de 96bc 24b0 083d 8752 0e3d
000000c0: 4b1a e8bc 2ea1 bcbb 4f78 ad3d a75e 0fbe
000000d0: 79f2 dfbd ff35 763e bf0e 50bd 75c8 9bbd
000000e0: 2088 89bd a6a3 7d3d 3219 44bd 9237 ee3d
000000f0: 4f50 8dbd c2b8 123e 08aa 153d 4583 66bd
00000100: b9f6 d43d 42c8 8c3d 45da 753b 00fa 803d
00000110: 7963 463d 5889 8f3c 57bb a73c 0ea5 913d
00000120: b016 58bd c5db 043d 4797 873d 5fcd 5ebd
00000130: f040 db3c d1ab b23e 2b01 f6bd 8615 4f3d
00000140: b216 843d 86e9 03be dc74 89bc be04 523d
00000150: 28ad a13d a1b8 143d 85ab 34bd 844a 4f3d
00000160: a9aa f4bc b455 cebc 81d0 4bba 270a 843b
00000170: f330 bdbd 2bb1 4f3d be6f 4bbd 5154 a73d
00000180: d2d4 403d 6fc3 60be 1770 413e 632c ffbd
00000190: 26b3 51bc 4379 5a3d 3a41 aebd 5f8a b03d
000001a0: 3892 3dbe 66fd 66bc 3086 0bbc 22eb 9b3d
000001b0: 9e96 9dbd 770f 88bd 8389 163e 0fff b3bc
000001c0: fe0d d6bc a064 863d 6bbc 353d 9ae6 1cbe
000001d0: ce09 abbd 8755 ce3d 4d31 3d3d 9191 d43d
000001e0: 97f1 70bd 2034 a03c ccb7 ab3d 0227 243c
000001f0: 92e7 913d 49a6 693c 63c0 113c 986d ff3d
00000200: 45bf 6cbc 0ce2 8dbc 4d95 d73d 8370 81bd
00000210: cabe f4bd 4275 283c fd9e 533d 348e 023d
00000220: 9d84 1f3d 5299 0c3d 6895 023c 7ac3 6a3d
00000230: 4597 4ebc 4bbc e63c a691 4f3d d0c0 3e3d
00000240: 15f9 a9ba 997b c5bb 0b10 403d 233d 663c
00000250: effb b83d b248 ecbc 369d 113e f649 213a
00000260: 018a 543d 2d48 81bd 0d1c 323d 0e75 0abd
00000270: 0a3d 993c 46ea df3d 8623 10be 6583 5bbd
00000280: e4d2 603e 8d59 12bd c7a1 eb3c 2794 923d
00000290: 7c0f 5a3d 2878 f0bc ea2b 88bd 915a 453d
000002a0: 084a 193d ce24 e4bd bb7b 86bd 4029 933d
000002b0: f7da 0abe d06a ecbc c7de 9fbd d162 f73c
000002c0: 5a36 bcbd 1942 253e 0bb6 89bd 4ee5 013d
000002d0: 240f 3b3b d28c b63a 0b32 193e ee4a 82bd
000002e0: cb34 e4bd e9df e2bc 0229 7b3d 08ae c3b9
000002f0: 91e1 9bbc 192a 08bc 9a8c 873e c7ec e9bd
00000300: c241 883d 546e 5fbb ac94 8cbd 42db 0d3d
00000310: 6220 b33d f5e4 75be 0ff5 343d 9593 383c
00000320: 4382 86bc 2128 2c3e 6314 4cbd a610 9cbd
00000330: c477 9dbc 449f 833c b85f 593d 059c 9abc
00000340: 4a89 4ebd 28da 8f3d c4c5 febc 6597 733d
00000350: 4cdb a93d d33c c43d 50e6 fe3c 53ed 2abd
00000360: 811f f9bb 2359 363d 6207 e9bb 0d2f 2bbc
00000370: 607d 1ebc 2e18 c13d 886d ad3d 969d 92be
00000380: b5b5 583c af48 3f3e 6a6e 0b3e 879f b53c
00000390: aede 01be b8d8 123b 02b0 273d 078a b63d
000003a0: 4932 d03c 22f0 223d fbd8 43bd 6a75 4f3d
000003b0: 0bd7 a8bd f554 0cbd 84a3 07be 186e 4b3d
000003c0: 8d36 c5bb 9935 dc3c 1838 d6bc e21e b53d
000003d0: c539 91bc 1dea 643e bf50 c13d e8f1 edbd
000003e0: b21d e0bd 52d1 1fbd 25e6 3abd aa56 9bbb
000003f0: 12e3 b63d a6e3 7dbd 00d9 18be bf15 d83d

model_2/block_1_project_BN/FusedBatchNormV3 f4 [128]
0.36521327 0.67715764 -0.44821352 -0.57470477 -0.963058 0.36776444 1.3064913 0.45229858
0.22627716 -0.18995303 -0.39293113 -0.15603241 0.032249626 -0.19965081 -0.31460863 -0.50223345
-0.8610165 0.7685462 -0.52940345 -0.61483824 0.9626396 -0.5023157 0.8110566 1.7280649
-0.1856813 -0.68235606 -0.77710086 -0.029722704 -0.002287661 0.319213 0.51174307 0.18692346
-0.20879555 0.49021953 -0.07969622 -0.3610997 -0.4627713 -0.028359069 -0.44958058 -0.72141576
0.14877085 -1.6534039 0.09973314 0.32085332 -0.053953998 -0.7972664 1.181512 0.76298076
0.04248177 0.5295585 1.2141021 0.27019462 -0.93395406 0.6783667 -0.1265091 -0.6079833
0.3555992 -0.65252656 0.41875228 -0.14338657 -0.07396837 0.19410229 -0.34377417 -1.1579272
-0.80161417 -0.46144015 0.34794864 -0.8581148 0.43408784 -0.08371111 -0.49961343 0.9105177
0.10377857 -0.49002513 -0.53759587 0.26521847 -0.47626457 0.49703664 1.4330809 -0.2403479
1.1650615 -0.5230931 -0.36868167 1.1772224 -0.29375535 -0.18701918 0.35546812 0.4353871
1.0978994 -0.14934677 -0.2849655 0.09260375 -0.6064737 -0.20736484 -0.3735719 -0.7933179
0.9342794 -0.19718847 0.42053562 1.8385015 -0.03673115 -0.43244076 -0.9869862 0.4533839
0.39072812 0.046290647 -0.6884623 -0.35637698 0.052683305 -0.19180898 0.51606476 -0.14552823
0.65054333 -0.12413064 -0.89640796 -0.5074591 0.45315394 -1.6681337 -0.29890054 0.2466522
-0.14986385 -0.5836343 -0.40533566 -0.07192565 -1.107798 0.63401914 -0.6177808 -0.23896119
00000000: 3cfd ba3e 345a 2d3f 3e7c e5be da1f 13bf
00000010: f88a 76bf 9f4b bc3e 1b3b a73f ae93 e73e
00000020: 33b5 673e 0c83 42be 452e c9be f6c6 1fbe
00000030: 2f18 043d 4371 4cbe 6214 a1be 5f92 00bf
00000040: 946b 5cbf 72bf 443f fc86 07bf 0a66 1dbf
00000050: 8c6f 763f c397 00bf 68a1 4f3f 3b31 dd3f
00000060: 3d23 3ebe e3ae 2ebf 15f0 46bf 077d f3bc
00000070: 95ec 15bb e36f a33e 9801 033f dd68 3f3e
00000080: 80ce 55be 0efe fa3e c637 a3bd 0fe2 b8be
00000090: 5cf0 ecbe 4751 e8bc 6d2f e6be b4ae 38bf
000000a0: 6357 183e bda2 d3bf e340 cc3d e346 a43e
000000b0: defe 5cbd a719 4cbf c93b 973f b552 433f
000000c0: 5d01 2e3d 2591 073f b367 9b3f f356 8a3e
000000d0: 9d17 6fbf 71a9 2d3f 9a8b 01be cba4 1bbf
000000e0: 1911 b63e fb0b 27bf b366 d63e eed3 12be
000000f0: bb7c 97bd c0c2 463e 2b03 b0be f536 94bf
00000100: 9636 4dbf e241 ecbe 5326 b23e 69ad 5bbf
00000110: c340 de3e bb70 abbd 55cd ffbe b017 693f
00000120: dc89 d43d 93e4 fabe e29f 09bf b7ca 873e
00000130: f3d8 f3be 967b fe3e 326f b73f c31d 76be
00000140: bc20 953f 6ee9 05bf d8c3 bcbe 39af 963f
00000150: 1a67 96be f581 3fbe ebff b53e 0feb de3e
00000160: f887 8c3f 5cee 18be ffe6 91be 09a7 bd3d
00000170: dc41 1bbf 7357 54be d144 bfbe e216 4bbf
00000180: ef2c 6f3f c6eb 49be 7250 d73e 0454 eb3f
00000190: 6773 16bd e068 ddbe 21ab 7cbf ef21 e83e
000001a0: 840d c83e 439b 3d3d 113f 30bf 0b77 b6be
000001b0: 73ca 573d 9369 44be d21c 043f 5a05 15be
000001c0: 028a 263f 3438 febd fe7a 65bf d7e8 01bf
000001d0: cb03 e83e 6885 d5bf 7e09 99be 6592 7c3e
000001e0: e975 19be 0f69 15bf 2888 cfbe c14d 93bd
000001f0: 53cc 8dbf 144f 223f e226 1ebf 3eb2 74be

model_2/block_1_expand_BN/FusedBatchNormV3 f4 [256]
0.0836126 0.024391586 0.1118072 0.016163591 -0.019929137 0.00095402927 -0.02596888 -0.07955511
0.0057677794 0.08191084 -0.10767526 0.059986457 -0.025734698 0.014087184 -0.019053794 -0.023004837
-0.14406869 -0.044887137 0.020062106 -0.030790584 0.046181332 0.17637128 -0.0305738 -0.06307956
0.10605664 -0.042306826 0.038673136 -0.013773249 -0.0041127503 -0.012063801 0.048315745 -0.015932547
0.06333962 -0.009754171 -0.057316855 -0.07747665 0.1380154 -0.047700137 0.01883285 -0.04294641
0.02404869 -0.12267482 -0.024982078 0.002274068 0.0085425805 -0.0067458474 -0.09756377 0.06834478
-0.014533222 -0.007442599 0.08521441 0.055653103 0.07895146 0.1974703 -0.015686622 -0.09627186
-0.02892211 0.043198783 -0.056888074 0.004818654 -0.05246393 -0.0029986624 -0.00027168196 0.011404177
0.036554325 0.007724291 0.051660955 -0.16755828 -0.17340553 -0.01093393 0.11245624 0.0011489339
0.040360644 -0.25266427 0.019210339 0.010525596 -0.0703319 -0.043857645 -0.22848168 -0.0457311
-0.014488775 0.080533795 0.01373823 0.092884906 0.025285522 0.058960356 0.087544724 -0.11401716
-0.103426225 -0.011873852 -0.0065156515 -0.0076659056 -0.051514987 0.036478512 0.013941483 0.13229255
-0.0062188087 0.0021229917 0.082581244 0.07982563 -0.05908018 -0.026953029 0.023329798 -0.03351787
0.0015128325 -0.002873583 -0.09762855 -0.06417584 0.0007302725 -0.020916445 0.00060208805 0.019551985
0.1503156 -0.026226861 -0.029008461 0.024757236 -0.0019868324 0.012088311 -0.024058715 -0.05004951
-0.020943888 0.036180105 -0.070244476 0.006144005 0.057106595 -0.028400065 -0.15569946 0.007416889
-0.023504358 0.0027523444 0.052217912 0.16642825 -0.01938796 -0.013638398 -0.0020679673 0.049047697
0.1521357 -0.096160196 0.01843125 0.03984207 -0.037676524 0.031536616 -0.15401173 0.08343698
0.07648956 0.10497853 -0.009571635 -0.002511212 -0.028101798 -0.029415837 0.02339406 -0.01949198
-0.036770493 0.0050776857 -0.0032876376 -0.023729535 -0.043778133 -0.034201406 -0.00012265748 0.021483613
-0.0002743008 0.10717928 -0.0055861557 -0.028019419 -0.096845075 0.03426806 0.2177792 0.07566515
0.012754394 -0.015003517 -0.005505104 -0.023556177 -0.01608231 0.01860304 -0.040936325 0.01442889
0.033784963 -0.048113618 -0.16138656 0.22331396 -0.16871941 0.00745177 0.0016182488 -0.0034375486
0.011927366 0.037532434 -0.03429964 0.011194761 -0.057044886 0.0078032 0.063632034 0.011375454
-0.026135132 0.14314438 0.023938179 -0.20431451 -0.062685184 0.02209216 -0.017588448 0.14100927
-0.08526162 0.006342126 0.076818444 -0.033698354 0.0003789739 0.026815372 0.032664426 0.33791268
0.059361793 -0.09655266 -0.0006584438 -0.122304566 -0.018490165 0.16059697 -0.029997699 0.2174985
-0.008591584 0.09413069 -0.030927561 0.21839076 -0.07013484 -0.07438159 0.04872702 0.13189155
0.022490447 -0.0123602385 0.060491893 -0.005854432 0.0045543127 0.047599908 -0.002814156 -0.01850562
-0.16007248 0.0042422754 -0.034375824 -0.20810051 -0.005866069 0.063564554 -0.017319541 0.012968851
0.010688472 0.14811178 0.03068981 -0.0011653883 -0.04001679 -0.016028257 0.06627586 -0.23103304
0.074265435 0.00096982415 0.07371704 -0.050056357 -0.27526215 -0.007884947 -0.007291482 -0.22069804
00000000: 153d ab3d ddd0 c73c 2cfb e43d 8269 843c
00000010: 6e42 a3bc d217 7a3a b0bc d4bc caed a2bd
00000020: a4ff bc3b dfc0 a73d d984 dcbd 5cb4 753d
00000030: 93d1 d2bc efcd 663c b416 9cbc a474 bcbc
00000040: be86 13be 93db 37bd 4959 a43c 893c fcbc
00000050: a328 3d3d ac9a 343e e875 fabc db2f 81bd
00000060: 3934 d93d ec49 2dbd b967 1e3d 32a9 61bc
00000070: 40c4 86bb 40a7 45bc bbe6 453d f984 82bc
00000080: 34b8 813d f5cf 1fbc 14c5 6abd 14ac 9ebd
00000090: e953 0d3e 3861 43bd 5947 9a3c 93e8 2fbd
000000a0: c201 c53c f03c fbbd 37a7 ccbc 8808 153b
000000b0: 2ef6 0b3c 450c ddbb 84cf c7bd 59f8 8b3d
000000c0: c01c 6ebc 0ce1 f3bb e584 ae3d 82f4 633d
000000d0: 4eb1 a13d a835 4a3e 3b81 80bc 2e2a c5bd
000000e0: 10ee ecbc 35f1 303d 7803 69bd cde5 9d3b
000000f0: 6be4 56bd 3585 44bb 8970 8eb9 96d8 3a3c
00000100: fdb9 153d 0d1c fd3b 709a 533d 6694 2bbe
00000110: 3891 31be 3a24 33bc 754f e63d d397 963a
00000120: 3451 253d 365d 81be 005f 9d3c 8d73 2c3c
00000130: 2c0a 90bd 13a4 33bd 1af7 69be 8950 3bbd
00000140: 5462 6dbc e7ee a43d 5016 613c 713a be3d
00000150: 9523 cf3c 6a80 713d a64a b33d d481 e9bd
00000160: 21d1 d3bd 8c8a 42bc 3f81 d5bb 4732 fbbb
00000170: 6101 53bd 7e6a 153d d16a 643c b377 073e
00000180: 26c7 cbbb e421 0b3b 5b20 a93d 9f7b a33d
00000190: 0ffe 71bd 99cc dcbc 221e bf3c 094a 09bd
000001a0: 3c4a c63a b952 3cbb 7af1 c7bd 9f6e 83bd
000001b0: c26f 3f3a f758 abbc 72d5 1d3a 7c2b a03c
000001c0: 55ec 193e b7d9 d6bc 27a3 edbc b0cf ca3c
000001d0: 8435 02bb 0d0e 463c c816 c5bc b700 4dbd
000001e0: 8492 abbc 9731 143d 56dc 8fbd a653 c93b
000001f0: 9be8 693d 41a7 e8bc ae6f 1fbe 6009 f33b
00000200: 368c c0bc ad60 343b 73e2 553d 2b6c 2a3e
00000210: 80d3 9ebc 9673 5fbc bc86 07bb 3de6 483d
00000220: 76c9 1b3e a3ef c4bd 22fd 963c 7031 233d
00000230: b352 1abd 8a2c 013d 40b5 1dbe 02e1 aa3d
00000240: 8fa6 9c3d fcfe d63d 59d2 1cbc 2593 24bb
00000250: be35 e6bc 7bf9 f0bc e6a4 bf3c a5ad 9fbc
00000260: a89c 16bd b762 a63b 6875 57bb 7164 c2bc
00000270: b350 33bd c616 0cbd 9e9d 00b9 67fe af3c
00000280: 08d0 8fb9 cf80 db3d 120c b7bb fb88 e5bc
00000290: b656 c6bd aa5c 0c3d 8301 5f3e 55f6 9a3d
000002a0: cef7 503c 50d1 75bc 2964 b4bb e2f8 c0bc
000002b0: 0cbf 83bc 6765 983c d9ac 27bd 2767 6c3c
000002c0: 1a62 0a3d c912 45bd 8542 25be 6aac 643e
000002d0: c8c4 2cbe fa2d f43b 6b1b d43a 7f48 61bb
000002e0: 006b 433c 9cbb 193d c87d 0cbd 3b6a 373c
000002f0: e6a7 69bd fcb1 ff3b 8351 823d 1d60 3a3c
00000300: 5819 d6bc 7194 123e 001a c43c d337 51be
00000310: 1761 80bd 9efa b43c a615 90bc bc64 103e
00000320: a59d aebd 9cd1 cf3b fd52 9d3d 4907 0abd
00000330: 04b1 c639 e9ab db3c 22cb 053d e402 ad3e
00000340: 5a25 733d 67bd c5bd 6a9b 2cba d17a fabd
00000350: b078 97bc 8873 243e bcbd f5bc edb7 5e3e
00000360: b7c3 0cbc 97c7 c03d cc5b fdbc d4a1 5f3e
00000370: dba2 8fbd 6055 98bd fc95 473d 940e 073e
00000380: e33d b83c 9982 4abc 59c6 773d 89d6 bfbb
00000390: 583c 953b 1ff8 423d b46d 38bb 1999 97bc
000003a0: 0aea 23be c902 8b3b aacd 0cbd 4d18 55be
000003b0: 2738 c0bb 222e 823d b6e1 8dbc 4e7b 543c
000003c0: b31e 2f3c 9daa 173e 3269 fb3c f1bf 98ba
000003d0: a5e8 23bd b14d 83bc a3bb 873d ed93 6cbe
000003e0: 7a18 983d cc3b 7e3a f6f8 963d e507 4dbd
000003f0: 29ef 8cbe dd2f 01bc 62ed eebb abfe 61be

model_2/block_0_project_BN/FusedBatchNormV3 f4 [64]
0.99772036 -0.23621151 0.4835702 -0.98344535 0.23956858 0.039519906 -1.6263734 -0.23658095
-0.3763186 1.0353322 0.16713588 0.17831406 0.37261963 -0.40683442 -0.47082824 0.03670287
0.60335034 0.025609842 -0.35707116 -0.5562488 -0.18183717 1.3656712 0.27477401 1.6593001
-0.5809661 1.6735445 -0.16766666 -0.8649264 -1.2008047 0.5751169 -0.10876327 -0.5819088
-1.6630316 -1.3855375 0.56233287 0.19747679 0.844664 0.12927532 0.07579619 0.3581881
1.508428 0.6351908 -0.5586111 0.024118682 -0.66548604 -0.071189076 -0.75210744 0.6991434
-0.5764964 -0.50103927 -0.42038774 0.33729628 -0.038954306 -0.7774126 -0.19256137 -0.25928313
-0.86097634 -0.5174148 1.1028315 2.4539936 0.83656836 -0.47149712 -0.15744337 0.38822398
00000000: 9a6a 7f3f 6ee1 71be 8396 f73e 13c3 7bbf
00000010: 7751 753e a0df 213d 012d d0bf 4742 72be
00000020: d5ac c0be c485 843f ab25 2b3e f697 363e
00000030: 00c8 be3e 9a4c d0be 6610 f1be c055 163d
00000040: 2b75 1a3f bbcb d13c 08d2 b6be 5266 0ebf
00000050: 8633 3abe 50ce ae3f 2eaf 8c3e f263 d43f
00000060: 32ba 14bf b536 d63f cfb0 2bbe d16b 5dbf
00000070: f8b3 99bf dc3a 133f 47bf debd faf7 14bf
00000080: 38de d4bf 4b59 b1bf 0cf5 0f3f 5b37 4a3e
00000090: e63b 583f c060 043e 083b 9b3d 6e64 b73e
000000a0: 2b14 c13f dd9b 223f 2301 0fbf 8b94 c53c
000000b0: 4b5d 2abf 94cb 91bd 1d8a 40bf 10fb 323f
000000c0: 4595 13bf 1c44 00bf 103d d7be 19b2 ac3e
000000d0: 8d8e 1fbd 8304 47bf cf2e 45be c2c0 84be
000000e0: f268 5cbf 4c75 04bf 9529 8d3f 3b0e 1d40
000000f0: 5829 563f 1268 f1be d638 21be 4bc5 c63e
